hw3/checkpoints2/rnn_1.pt (torch_old, 756463 bytes, 20 tensors)

Layer0.hg.weight f4 [128, 128]
-0.21917957 -0.10423221 -0.12751374 0.26803598 -0.027685184 -0.3259939 0.13232589 0.085171506
-0.10163042 0.09150678 -0.17335187 -0.1232067 0.16362724 -0.03177343 -0.13841632 0.040314887
-0.2728928 -0.4213158 0.20224126 -0.19461136 -0.118322104 0.1753806 -0.24681664 0.43319356
-0.09880214 -0.07732763 0.13746782 -0.28083414 -0.15414852 0.21270795 -0.2533679 -0.05047917
0.24388161 -0.17569399 0.039926436 -0.07287229 0.28392008 -0.024260191 0.2866156 0.36057165
0.1842513 0.10694177 -0.038438067 0.063107245 0.18282735 -0.1530331 -0.052791644 -0.3449174
-0.3467855 0.14165916 0.17414746 0.057807244 -0.2567788 -0.10741021 -0.09211544 0.20663448
0.30599734 0.18981391 0.22843 -0.14284775 -0.14468631 0.24294485 -0.14314869 0.057892963
-0.030723387 0.21517712 0.088546686 0.060015153 -0.25769496 -0.24253802 0.35564053 0.2465805
-0.16087417 0.24103823 -0.10128614 0.038107026 -0.07004979 -0.077213146 0.26029313 -0.034000535
-0.21254048 0.11161624 -0.083457045 0.18664624 -0.13292968 0.18208362 -0.026370322 -0.15051527
0.29036534 -0.030740812 0.18767735 0.13487567 0.084410176 -0.034889653 -0.11715303 0.020744415
0.3897904 -0.09586731 0.07185971 0.25742197 0.12095672 -0.1884913 0.13667047 0.03546366
-0.21702024 -0.10510115 0.030122826 -0.10146212 -0.015041419 0.2550067 -0.13677542 -0.06424434
0.24243574 -0.23412333 0.13144962 0.26844865 0.2643829 -0.008172701 0.13433748 0.09217832
-0.25595188 0.03586061 -0.038969573 -0.28238195 0.3763867 0.13960321 0.08261757 0.15928827
-0.043905426 -0.13481069 -0.31155473 -0.06266501 0.092839934 0.45766166 -0.10863823 -0.36274278
0.03609351 0.17588294 -0.037734885 -0.062441446 -0.3036877 -0.19521178 -0.21661417 -0.093584426
0.18780033 -0.07390456 -0.15072697 0.18833299 -0.09717353 0.24386325 -0.43206555 -0.38063514
-0.09339792 0.057983126 0.053437207 -0.14157383 0.1962858 -0.0674054 0.20490502 0.053421
-0.058950834 -0.009888518 -0.24654569 -0.08933727 -0.1638585 -0.23863734 -0.055927753 -0.31360137
0.37554178 0.3704535 -0.03727165 0.05142273 0.07715423 -0.09579023 0.15566713 -0.18673573
0.06074669 -0.042360604 -0.28993213 -0.14231311 0.053816613 -0.13484241 0.009498945 0.008198152
-0.15377766 0.13632755 0.14267091 -0.15439497 -0.05326183 -0.07320066 -0.021374611 0.11383664
0.14910121 -0.3235086 -0.14589687 0.15169798 0.13698028 0.12119745 -0.27932188 0.010779435
0.11424468 -0.029867647 -0.065899774 -0.16328536 -0.38830236 -0.43276525 0.09426188 0.2246402
0.17285956 -0.0434781 0.2842045 -0.23880823 -0.30546004 0.08948226 0.005538361 0.014107273
-0.16744801 -0.116575815 -0.27629748 0.023819964 0.0062884674 0.33599436 -0.17281987 0.06236757
-0.34097615 -0.058257 -0.34874448 -0.5619325 0.019167587 0.09164115 -0.10872817 0.08081831
-0.118741386 0.066495284 -0.091839604 -0.052542016 0.19581026 -0.064872555 0.09779754 0.2181597
-0.28210858 0.13036871 -0.07331261 0.12216943 0.026719537 0.0049219257 0.2738504 -0.19387613
0.05197316 -0.12877579 0.2187906 0.0042066807 -0.12943438 0.41113815 0.1360773 -0.064034864
00000000: 9c70 60be b277 d5bd f692 02be 033c 893e
00000010: 0acc e2bc ace8 a6be 7080 073e 666e ae3d
00000020: 9c23 d0bd e867 bb3d 2783 31be cb53 fcbd
00000030: e68d 273e db24 02bd 02bd 0dbe 3921 253d
00000040: 9bb8 8bbe b4b6 d7be 5518 4f3e 3348 47be
00000050: dc52 f2bd f996 333e 80bd 7cbe 8ccb dd3e
00000060: c758 cabd f35d 9ebd 5dc4 0c3e 7ec9 8fbe
00000070: 1cd9 1dbe 1dd0 593e 70b9 81be 3fc3 4ebd
00000080: 1abc 793e 20e9 33be e789 233d 113e 95bd
00000090: f95d 913e 4fbd c6bc 48bf 923e d99c b83e
000000a0: 5fac 3c3e 4904 db3d 3c71 1dbd 5f3e 813d
000000b0: 1837 3b3e b5b4 1cbe 0d3c 58bd 0399 b0be
000000c0: de8d b1be 190f 113e b653 323e 4ac7 6c3d
000000d0: 8378 83be e2f9 dbbd 05a7 bcbd fd97 533e
000000e0: afab 9c3e 945e 423e 8ee9 693e ae46 12be
000000f0: a628 14be 89c6 783e 9295 12be 2c21 6d3d
00000100: 9daf fbbc 6457 5c3e f757 b53d 73d2 753d
00000110: 98f0 83be e35b 78be 8416 b63e 997f 7c3e
00000120: 33bc 24be bad2 763e 1c6f cfbd 1d16 1c3d
00000130: 4476 8fbd ed21 9ebd 2445 853e 2544 0bbd
00000140: 36a4 59be 0e97 e43d 87eb aabd 3120 3f3e
00000150: b81e 08be 2174 3a3e 9306 d8bc ad20 1abe
00000160: c4aa 943e 28d4 fbbc 7e2e 403e d91c 0a3e
00000170: 3edf ac3d 74e8 0ebd eeed efbd 31f0 a93c
00000180: 9b92 c73e 1556 c4bd 2f2b 933d d0cc 833e
00000190: 28b8 f73d dd03 41be 58f3 0b3e 5842 113d
000001a0: 8e3a 5ebe 463f d7bd 25c4 f63c 5fcb cfbd
000001b0: 4970 76bc 3d90 823e db0e 0cbe 8992 83bd
000001c0: 1341 783e 07be 6fbe bb9a 063e 1a72 893e
000001d0: 325d 873e cbe6 05bc c48f 093e fdc7 bc3d
000001e0: 200c 83be 93e2 123d 8f9e 1fbd 5e94 90be
000001f0: c2b5 c03e 25f4 0e3e 6733 a93d 771c 233e
00000200: 2dd6 33bd d00b 0abe 1a84 9fbe 8356 80bd
00000210: dd22 be3d a152 ea3e b87d debd 6cb9 b9be
00000220: cad6 133d a81a 343e e58f 1abd 9ac2 7fbd
00000230: f47c 9bbe 99e5 47be 1bd0 5dbe 31a9 bfbd
00000240: bb4e 403e 465b 97bd 2c58 1abe 5dda 403e
00000250: ea02 c7bd 4ab7 793e b237 ddbe 9ce2 c2be
00000260: 6947 bfbd b77f 6d3d f9e0 5a3d bbf8 10be
00000270: 25ff 483e d80b 8abd 9fd2 513e facf 5a3d
00000280: 6e76 71bd 7303 22bc 7976 7cbe 75f6 b6bd
00000290: 86ca 27be 595d 74be 8014 65bd 5c90 a0be
000002a0: 0347 c03e 15ac bd3e 28aa 18bd a4a0 523d
000002b0: 0903 9e3d ab2d c4bd 3467 1f3e a737 3fbe
000002c0: 85d1 783d 5082 2dbd fc71 94be 87ba 11be
000002d0: cf6e 5c3d 2114 0abe 77a1 1b3c 8b51 063c
000002e0: e477 1dbe 7399 0b3e 5318 123e b719 1ebe
000002f0: 1429 5abd 3aea 95bd cf19 afbc 2f23 e93d
00000300: fdad 183e eba2 a5be fd65 15be b756 1b3e
00000310: 8f44 0c3e 5e36 f83d 4703 8fbe 3a9c 303c
00000320: 1df9 e93d ffac f4bc 76f6 86bd 4734 27be
00000330: 91cf c6be 6893 ddbe 5f0c c13d 1508 663e
00000340: 1902 313e 1816 32bd 4183 913e 258a 74be
00000350: 4265 9cbe 7a42 b73d 247b b53b 3122 673c
00000360: 7e77 2bbe 4dbf eebd dd76 8dbe 1622 c33c
00000370: 7d0f ce3b 7407 ac3e b1f7 30be 2375 7f3d
00000380: 6d94 aebe e49e 6ebd a38e b2be cfda 0fbf
00000390: 5805 9d3c 5bae bb3d e0ac debd 1284 a53d
000003a0: af2e f3bd ae2e 883d 6716 bcbd 4c36 57bd
000003b0: 7c82 483e e7db 84bd 144a c83d 4265 5f3e
000003c0: 8970 90be 607f 053e ec24 96bd f733 fa3d
000003d0: eee2 da3c 1b48 a13b 1f36 8c3e 7787 46be
000003e0: cfe1 543d cddd 03be a50a 603e 32d8 893b
000003f0: 728a 04be b380 d23e d957 0b3e b624 83bd

Layer0.hr.weight f4 [128, 128]
0.13934219 0.71086365 -0.06981123 0.09823218 -0.15745889 -0.34049162 0.027555263 -0.07147478
0.16219565 0.08689289 0.08451945 0.18414184 -0.20908342 0.019954344 -0.0894606 0.0026475783
0.52295816 0.30775657 -0.06450414 -0.061259657 0.0667029 -0.52968264 0.2749736 -0.47385803
-0.037209876 -0.044635877 -0.114273444 0.12630427 0.4230774 0.3133054 0.12084752 0.299715
-0.20676544 0.034011353 -0.24926403 0.28125 0.08371802 -0.05527035 -0.17832197 -0.21881647
0.14545068 -0.13522835 -0.116801545 -0.018259054 -0.26523882 -0.13324212 -0.07939559 0.17288919
-0.32510114 0.11173985 -0.34655982 0.22903526 -0.06795814 -0.02856963 -0.10966622 -0.31126708
-0.061475225 0.17306714 0.2455945 0.15075728 -0.009745793 -0.22978798 -0.09303846 -0.040805284
-0.03979188 -0.2683898 0.04141666 0.18760803 -0.045608167 -0.12663275 -0.9637879 -0.10759509
0.27961865 0.07699322 -0.45579126 -0.24057625 0.10228595 -0.2835703 0.15884039 -0.10770402
0.17383252 0.051314853 0.13351688 -0.23569371 0.28054258 -0.16120498 0.20494263 0.20048103
0.10716234 -0.37861586 0.15623303 -0.0106826285 0.0078351665 0.33534965 0.1443152 -0.03820834
0.19880839 0.18901221 0.33504093 -0.107272565 0.23169352 0.21696211 -0.23503634 -0.10009357
0.033016622 0.28893918 -0.050648253 -0.15316924 0.19737962 0.14442441 0.22550605 0.4056225
0.39010793 -0.20802207 -0.03846269 -0.33686042 -0.17960455 -0.049826562 -0.312396 0.052044697
0.4056825 -0.0306127 -0.08560278 0.034807883 -0.21420336 -0.40112275 0.051000126 -0.23050603
0.25615254 0.083588906 -0.114833824 0.21983717 0.08257031 0.26092714 -0.35040227 0.14781089
0.16882506 0.016020862 0.2786034 0.14429365 0.05384698 0.1281261 -0.5430436 0.0898637
-0.34293482 0.3675476 -0.21132056 -0.38083303 0.015099207 -0.5669102 -0.27868566 -0.4115996
0.13508613 -0.24441822 0.0126483925 0.1030136 0.31857765 0.23855707 0.22276938 -0.21759777
-0.28781024 0.1520152 0.53391755 0.018757664 0.012663363 0.26984185 0.3999724 -0.05996139
0.29562688 -0.31478408 -0.0038269055 0.16451102 -0.067037694 -0.40898818 0.04016586 -0.13584426
-0.31895578 0.2580909 -0.15646818 0.12896419 0.18868713 -0.4015321 -0.08430399 -0.21133295
0.35479826 0.4463975 -0.029542737 -0.19090188 0.059238672 0.051387228 0.5512586 -0.4839377
0.25615233 0.21739568 -0.19272925 -0.21463083 -0.081593014 -0.07096411 0.17509525 -0.15363732
0.4746228 0.21018642 -0.037669856 -0.13899678 -0.17825453 0.20198591 -0.20742415 0.1798609
0.31061292 -0.14263481 -0.23068474 -0.68724245 -0.05326677 0.10070849 0.41199088 -0.21580578
0.06836527 -0.76223606 -0.64464843 0.31768122 -0.016024923 0.17627297 -0.09391179 0.22966987
0.24722327 0.525334 0.4192902 -0.3624996 -0.6207718 -0.13307819 0.17430362 0.05561932
0.36666185 0.36799625 0.24028826 -0.54510134 -0.18504748 -0.04298379 0.3489764 -0.07001137
-0.18386474 0.23817526 0.6379886 0.09487936 -0.18094689 0.36508635 0.020622145 -0.1739966
0.3124371 0.21890824 -0.2904208 -0.013012331 0.38681853 -0.098169185 0.30130643 -0.05513603
00000000: b8af 0e3e 29fb 353f 31f9 8ebd f42d c93d
00000010: e73c 21be eb54 aebe 93bb e13c 5f61 92bd
00000020: 9e16 263e e6f4 b13d 8918 ad3d ae8f 3c3e
00000030: f719 56be 4b77 a33c 1e37 b7bd fe82 2d3b
00000040: 96e0 053f 4592 9d3e bf1a 84bd 68eb 7abd
00000050: 889b 883d 4899 07bf 57c9 8c3e 859d f2be
00000060: 6269 18bd 1cd4 36bd 3208 eabd e855 013e
00000070: 9a9d d83e 9169 a03e e87e f73d 3f74 993e
00000080: 52ba 53be 7d4f 0b3d 123f 7fbe 0000 903e
00000090: 5a74 ab3d 2a63 62bd 099a 36be 6d11 60be
000000a0: 06f1 143e 4d79 0abe a635 efbd 0394 95bc
000000b0: 62cd 87be 9f70 08be 289a a2bd dd09 313e
000000c0: a873 a6be ddd7 e43d 4a70 b1be 3888 6a3e
000000d0: a32d 8bbd db0a eabc af98 e0bd 665e 9fbe
000000e0: 72cd 7bbd 8338 313e 207d 7b3e 1e60 1a3e
000000f0: d2ac 1fbc 8a4d 6bbe f38a bebd 7123 27bd
00000100: cffc 22bd 636a 89be 84a4 293d 521c 403e
00000110: a1cf 3abd 04ac 01be ceba 76bf d15a dcbd
00000120: 2d2a 8f3e 9fae 9d3d 795d e9be 9f59 76be
00000130: 4c7b d13d 2030 91be 0ea7 223e ed93 dcbd
00000140: 2701 323e 862f 523d a6b8 083e b159 71be
00000150: 47a3 8f3e eb12 25be 7bdc 513e e64a 4d3e
00000160: ee77 db3d f0d9 c1be 8dfb 1f3e 3106 2fbc
00000170: 125f 003c f3b2 ab3e 5dc7 133e 5980 1cbd
00000180: 6d94 4b3e 6b8c 413e 7c8a ab3e b8b1 dbbd
00000190: 1141 6d3e 512b 5e3e 5ead 70be dcfd ccbd
000001a0: 703c 073d d6ef 933e 8b74 4fbd 66d8 1cbe
000001b0: e21d 4a3e fee3 133e 0feb 663e c1ad cf3e
000001c0: 3abc c73e bd03 55be 0e8b 1dbd f878 acbe
000001d0: 41ea 37be f016 4cbd 5ef2 9fbe d22c 553d
000001e0: 9eb5 cf3e 7cc7 fabc 8350 afbd b692 0e3d
000001f0: 2058 5bbe f65f cdbe 82e5 503d c609 6cbe
00000200: 6d26 833e a930 ab3d ff2d ebbd ff1c 613e
00000210: 9f1a a93d 3e98 853e ed67 b3be bd5b 173e
00000220: 7ae0 2c3e 2f3e 833c 1ba5 8e3e b7c1 133e
00000230: a78e 5c3d 7d33 033e e804 0bbf 760a b83d
00000240: 2795 afbe 332f bc3e 6b64 58be 8cfc c2be
00000250: aa62 773c 0721 11bf e3af 8ebe 2fbd d2be
00000260: 0554 0a3e c548 7abe 343b 4f3c cbf8 d23d
00000270: 9c1c a33e 4e48 743e a81d 643e f3d1 5ebe
00000280: dd5b 93be dfa9 1b3e d2ae 083f aca9 993c
00000290: fe79 4f3c b628 8a3e 2fc9 cc3e 139a 75bd
000002a0: 685c 973e 612b a1be d2cc 7abb 9475 283e
000002b0: 0f4b 89bd e666 d1be f584 243d c21a 0bbe
000002c0: 2c4e a3be 7e24 843e 3239 20be 300f 043e
000002d0: 3337 413e 9e95 cdbe 92a7 acbd aa67 58be
000002e0: 1ea8 b53e 378e e43e 9c03 f2bc c87b 43be
000002f0: 40a4 723d 6a7b 523d 491f 0d3f afc6 f7be
00000300: 6626 833e f99c 5e3e d15a 45be 2fc8 5bbe
00000310: 3d1a a7bd a255 91bd 2b4c 333e 1a53 1dbe
00000320: c201 f33e 1c3b 573e b54b 1abd 2c55 0ebe
00000330: 5b88 36be 65d5 4e3e ff66 54be 752d 383e
00000340: a808 9f3e dc0e 12be 9f38 6cbe 1fef 2fbf
00000350: 422e 5abd 4140 ce3d 78f0 d23e 31fc 5cbe
00000360: 1703 8c3d e721 43bf ae07 25bf 1da7 a23e
00000370: b346 83bc e780 343e d354 c0bd 942e 6b3e
00000380: 1928 7d3e 4a7c 063f 35ad d63e 8c99 b9be
00000390: e7ea 1ebf a645 08be a67c 323e 16d1 633d
000003a0: 1abb bb3e 016a bc3e 200e 763e c38b 0bbf
000003b0: 167d 3dbe c50f 30bd 09ad b23e 1f62 8fbd
000003c0: 0a47 3cbe 37e4 733e 3953 233f 1c50 c23d
000003d0: 244a 39be 99ec ba3e c6ef a83c 2a2c 32be
000003e0: c1f7 9f3e 7b29 603e 09b2 94be ac31 55bc
000003f0: 140d c63e ed0c c9bd d644 9a3e 51d6 61bd

Layer0.hz.weight f4 [128, 128]
-0.15443799 -0.44808096 0.47377443 1.0284673 0.5307434 -0.27971348 0.55691385 0.3235622
-0.13657218 -0.33197626 -0.1312262 0.6081006 -0.23136495 0.6447796 -0.041075468 0.7087874
0.4918892 0.7896727 0.595905 -0.41503346 0.0017164191 -0.94981307 0.26347035 0.43573114
0.25600284 -0.35916492 -0.123910844 0.08138114 0.1216138 0.050488234 0.15392359 0.0628962
0.2957026 -0.5110385 -0.4399318 -0.41617048 -0.63364345 -0.17631063 0.27399775 0.13387114
0.6409599 0.95585245 0.040586386 -0.74666446 -0.49156564 0.9521296 -0.18935204 0.8433182
-0.46868327 0.17649087 -0.27776134 0.52611536 0.19950528 -0.6818228 0.11632814 -0.30225614
-0.43834114 -0.7079612 0.12630565 0.14110836 0.24796826 -0.38134462 -0.76585203 0.11853777
1.0296093 0.37818235 -0.86353403 0.118348375 -0.14820057 -0.4174139 0.35639274 0.126572
-0.58161145 0.13733594 -0.7914979 0.3298979 0.72420573 0.5561446 0.31101632 0.005745508
-0.6466868 -0.5546778 0.16702515 0.10087316 0.04960985 0.46174806 -0.58638203 0.2699655
-0.08525264 -0.026361218 -0.5228914 0.36549675 0.23211901 -0.06834246 0.00995699 -0.26556674
0.09335355 -0.60237753 -0.19202174 -0.8303656 -0.50631946 0.78041536 -0.07646952 -0.33764142
0.02958064 0.42122108 0.34458005 0.09394463 -0.273024 0.2996952 0.3879258 0.3387448
0.41950804 -0.23947914 -0.4448753 0.75638723 0.34167644 0.38772196 -0.06902667 0.5463723
0.25842884 0.49372938 -0.88807154 -0.5144948 0.042598367 0.13304657 0.23558085 -0.3289362
0.051867902 -0.37478155 0.03027371 0.049287863 -0.09254827 0.28899878 -0.490441 0.32005385
-0.5106551 -0.33027983 -0.29173014 0.0017020087 1.1616757 -0.2692173 -0.4172996 -0.12993811
0.15155469 -0.5413384 0.0566183 -0.3050903 0.3833977 0.22211139 0.1637628 0.6168937
-0.10757867 -0.5134449 -0.24596949 0.3810992 0.10624605 0.70218045 0.3477805 0.44492826
-0.07733129 0.35688436 -0.043554943 -0.21981093 -0.033861652 0.17205496 0.3910717 0.17781627
0.11357616 0.5216637 -0.034117684 -0.32549733 0.37455982 -0.054007787 0.49351898 0.058278047
-0.5474745 0.2796329 0.24865231 0.49431005 0.28934252 -0.37325045 0.48641542 0.28524348
0.30766547 0.3377531 0.011282236 0.3766714 -0.69757634 -0.33945248 -0.3437238 0.4161368
-0.19591084 0.5266273 -0.14994004 -0.27109516 -0.7402457 -0.13758339 0.1868028 0.35376987
-0.7762489 -0.3888506 -0.33838776 -0.41058612 -0.7321503 0.08762624 0.27610174 0.5069548
0.3488708 -0.053789854 -0.45650756 -0.20181076 0.2617396 0.30258727 -0.47794083 0.33466014
-0.1996227 -0.8396239 0.44722593 0.48996115 0.938616 -0.046304245 -0.45472255 -0.17328298
0.00445772 0.20348394 -0.36546397 -0.27940303 -0.15845703 0.60045004 0.86808276 -0.19160913
0.1619948 -0.34251344 -0.23121327 -0.6028775 0.1739834 0.5116756 0.70092523 0.13447559
0.014678218 -0.14261934 -0.64649695 0.14411572 -0.33159715 -0.1442689 -0.31945884 -0.14302826
0.16170189 -0.22537233 -0.40121394 -0.2125958 -0.0007646401 0.15261847 0.23365241 -0.24180785
00000000: fe24 1ebe de6a e5be 9092 f23e d1a4 833f
00000010: cdde 073f 9b36 8fbe e891 0e3f f2a9 a53e
00000020: 94d9 0bbe cbf8 a9be 2960 06be 7bac 1b3f
00000030: efea 6cbe 4710 253f c03e 28bd 1773 353f
00000040: e7d8 fb3e fd27 4a3f 3b8d 183f 447f d4be
00000050: 78f9 e03a f326 73bf 96e5 863e 2718 df3e
00000060: ce12 833e 77e4 b7be f8c4 fdbd 28ab a63d
00000070: a810 f93d c0cc 4e3d 259e 1d3e b9cf 803d
00000080: 5566 973e 6bd3 02bf be3e e1be 4c14 d5be
00000090: 7536 22bf c68a 34be 6f49 8c3e 8415 093e
000000a0: f315 243f bfb2 743f e93d 263d 6725 3fbf
000000b0: 7eae fbbe c4be 733f 80e5 41be b4e3 573f
000000c0: 41f7 efbe 06ba 343e bc36 8ebe 7faf 063f
000000d0: 1d4b 4c3e f08b 2ebf 733d ee3d 51c1 9abe
000000e0: 406e e0be f23c 35bf 4556 013e b67e 103e
000000f0: 64eb 7d3e 9a3f c3be e10e 44bf eec3 f23d
00000100: 3dca 833f 1ea1 c13e 9110 5dbf a260 f23d
00000110: e4c1 17be 46b7 d5be 1c79 b63e 179c 013e
00000120: 7de4 14bf cba1 0c3e 9b9f 4abf 61e8 a83e
00000130: 8c65 393f 7e5f 0e3f 883d 9f3e d044 bc3b
00000140: 448d 25bf 5dff 0dbf a408 2b3e 9696 ce3d
00000150: b333 4b3d 3e6a ec3e 221d 16bf eb38 8a3e
00000160: f098 aebd 7bf3 d7bc 36dc 05bf 6422 bb3e
00000170: 9bb0 6d3e 22f7 8bbd a522 233c 5df8 87be
00000180: 2530 bf3d 6a35 1abf 59a1 44be d792 54bf
00000190: 279e 01bf 4dc9 473f 0d9c 9cbd 56df acbe
000001a0: 1953 f23c 4aaa d73e cc6c b03e 0b66 c03d
000001b0: cdc9 8bbe a671 993e 369e c63e f56f ad3e
000001c0: c2c9 d63e 053a 75be b2c6 e3be 98a2 413f
000001d0: 37f0 ae3e 7e83 c63e db5d 8dbd 0edf 0b3f
000001e0: c950 843e 19ca fc3e a858 63bf eeb5 03bf
000001f0: a07b 2e3d 5c3d 083e 1b3c 713e 536a a8be
00000200: 7073 543d 5ee3 bfbe 9200 f83c 12e2 493d
00000210: f389 bdbd a6f7 933e 151b fbbe 19de a33e
00000220: 4bba 02bf 701a a9be a75d 95be ef15 df3a
00000230: cab1 943f dad6 89be 4ba8 d5be 7f0e 05be
00000240: 2731 1b3e 2795 0abf 97e8 673d cc34 9cbe
00000250: b44c c43e 2b71 633e 6fb1 273e bfec 1d3f
00000260: 3552 dcbd 2071 03bf 6ddf 7bbe 6f1f c33e
00000270: 8797 d93d 19c2 333f 4910 b23e a3cd e33e
00000280: de5f 9ebd 8cb9 b63e ab66 32bd 1e16 61be
00000290: 84b2 0abd 2d2f 303e 8d3a c83e 7815 363e
000002a0: 9e9a e83d c18b 053f fcbe 0bbd 96a7 a6be
000002b0: 4ec6 bf3e 4537 5dbd 85ae fc3e f6b4 6e3d
000002c0: 4a27 0cbf 0b2c 8f3e b69e 7e3e 3516 fd3e
000002d0: b424 943e af1a bfbe 710b f93e 6f0b 923e
000002e0: 5486 9d3e f9ed ac3e 21d9 383c 13db c03e
000002f0: 5d94 32bf b7cc adbe 91fc afbe e20f d53e
00000300: da9c 48be 0cd1 063f e289 19be fccc 8abe
00000310: be80 3dbf a9e2 0cbe 3c49 3f3e 5321 b53e
00000320: 3fb8 46bf 6d17 c7be 2941 adbe 5838 d2be
00000330: 346e 3bbf 6375 b33d 355d 8d3e cac7 013f
00000340: 329f b23e c052 5cbd 5cbb e9be 7ba7 4ebe
00000350: bc02 863e b8ec 9a3e a9b4 f4be 9358 ab3e
00000360: e569 4cbe 98f1 56bf ccfa e43e 30dc fa3e
00000370: 2349 703f 85a9 3dbd 65d1 e8be 1871 31be
00000380: 1112 923b 185e 503e 181e bbbe ea0d 8fbe
00000390: 8f42 22be 18b7 193f ac3a 5e3f 2f35 44be
000003a0: f7e1 253e ec5d afbe 2cc3 6cbe 2e56 1abf
000003b0: b428 323e 2cfd 023f d66f 333f f8b3 093e
000003c0: e97c 703c ce0a 12be d380 25bf 1293 133e
000003d0: 1ac7 a9be 3abb 13be 1c90 a3be 0076 12be
000003e0: 2e95 253e 01c8 66be ea6b cdbe b7b2 59be
000003f0: 2172 48ba 0448 1c3e 9442 6f3e 7a9c 77be

Layer0.xg.weight f4 [128, 78]
-0.36467284 -0.012796635 -0.339499 -0.5290542 -0.009459358 0.07592414 0.037630063 -0.33065665
-0.7525486 -0.033485238 -0.7979971 -0.17513643 -0.68221414 -0.35815236 -0.39096817 -0.41406223
-0.016675191 0.09440837 -0.22251461 -0.22460109 -0.3528294 -0.8630551 -0.861578 -0.5160206
-0.11660243 0.004122645 0.06536364 -0.0076379795 -0.013158724 0.059780747 -0.15260498 -0.0038319812
-0.072267756 0.5047168 -0.108019836 0.015745072 0.2636944 -0.036417723 -0.08082214 -0.08850115
-0.15797724 -0.0765402 -0.1719934 0.052135885 -0.1608924 -0.2261337 0.0007822834 -0.10193523
-0.13448703 -0.075207144 0.04038169 -0.35352045 0.021462405 0.30259025 0.018157989 0.13544977
0.06334438 0.1661558 0.24502073 0.10778886 0.51584005 0.6003753 0.13720582 0.20144302
0.20102154 0.11994693 0.15955517 0.1740909 -0.39674988 0.16988772 0.051985234 0.05698283
0.21899454 0.11598674 0.10361478 0.10327456 -0.02819131 0.13937753 -0.25694352 0.2541065
-0.069886565 0.1818168 0.11713152 0.10364812 0.11183296 -0.21851704 -0.028434597 0.38753816
-0.06374206 0.1119616 0.26169136 0.2740786 0.37067845 0.43558237 0.41792127 0.44212025
0.19335635 0.2511281 0.14638646 0.32005697 -0.21759155 0.031074261 0.039150998 -0.0401498
0.07415485 0.06547545 -0.003306539 0.06738458 0.12713538 0.074200094 -0.22827104 0.38181877
-0.20310012 0.32470345 -0.14005357 0.6579757 0.14277448 -0.13618398 -0.45993614 0.48144618
-0.05989585 0.35693714 -0.6319499 0.3105384 0.18893176 -0.06200567 0.8926921 -0.018035159
0.10342169 0.3426994 -0.22598666 -0.121454656 0.1159196 0.044821497 -0.3859741 -0.005396645
-0.09181404 -0.24876484 -0.42474198 0.21036223 -0.40181965 -0.07655268 -0.0081402585 0.50191206
0.0669549 -0.19686234 0.21525854 0.1847576 -0.19451194 0.104173906 -0.50099623 -0.099225104
0.044594027 -0.23464145 0.64370257 -0.07426997 0.033521578 -0.08347268 0.4603057 -0.31770507
-0.111997895 -0.19435945 -0.1352604 0.24340695 0.5366082 -0.09413348 0.846791 0.38976613
0.52911764 0.44431496 0.26648745 0.38944092 0.45535365 0.47967765 0.444981 0.24257767
0.38587466 0.52712333 0.8538451 0.39594036 -0.3829424 -0.38420734 0.012284133 -0.1298423
-0.5391915 0.44242144 -0.4540342 -0.007262641 0.07600791 0.5897155 0.055671833 -0.27425122
0.20466565 0.10610599 -0.30897552 -0.11448504 -0.056697123 -0.08271098 -0.041549657 0.3142193
-0.8497361 -0.039279494 0.43956578 -0.40523708 0.2442457 -0.2616814 -0.49703082 0.3672054
-0.10911959 -0.16145195 0.15035234 -0.005133913 -0.13126507 0.088761464 0.04947592 0.16718747
-0.56813926 -0.00038035674 0.005682508 -0.118574075 0.015954284 -0.06303742 -0.081423305 0.02555047
-0.15535201 -0.07885694 -0.03315845 0.33249825 -0.23429334 0.1341655 0.54539216 0.107204795
0.3789985 0.20134567 0.038383987 0.047792222 -0.3775631 -0.35111037 -0.26241612 -1.166427
0.33088833 0.068565056 -0.1203664 -0.16936627 -0.40677434 -0.4197268 1.2296684 1.1257888
0.6029922 0.26893902 0.51364213 0.1290526 -0.08811623 0.11468953 -0.25484037 -0.1373482
00000000: 66b6 babe faa8 51bc d0d2 adbe 1970 07bf
00000010: 6cfb 1abc 1e7e 9b3d fb21 1a3d d44b a9be
00000020: 06a7 40bf d127 09bd 8a49 4cbf f756 33be
00000030: 96a5 2ebf bf5f b7be fb2c c8be f7ff d3be
00000040: 699a 88bc 2d59 c13d dfda 63be d4fd 65be
00000050: 0ea6 b4be 2ef1 5cbf 6090 5cbf ed19 04bf
00000060: 41cd eebd 4117 873b 5fdd 853d 0448 fabb
00000070: b097 57bc a8dc 743d 7b44 1cbe fa21 7bbb
00000080: 1e01 94bd 1f35 013f 8139 ddbd cffb 803c
00000090: f402 873e c02a 15bd 1486 a5bd 1740 b5bd
000000a0: c9c4 21be 1cc1 9cbd 0a1f 30be 708c 553d
000000b0: fac0 24be 988f 67be 2612 4d3a 6bc3 d0bd
000000c0: f8b6 09be 3406 9abd 4567 253d a200 b5be
000000d0: edd1 af3c 1ced 9a3e 10c0 943c 58b3 0a3e
000000e0: b3ba 813d bf24 2a3e b7e6 7a3e 68c0 dc3d
000000f0: 180e 043f 32b2 193f af7f 0c3e 1447 4e3e
00000100: 97d8 4d3e bca6 f53d 6e62 233e e344 323e
00000110: cd22 cbbe 0cf7 2d3e 78ee 543d d466 693d
00000120: 1b40 603e 758a ed3d fc33 d43d 9d81 d33d
00000130: 76f1 e6bc fcb8 0e3e 1a8e 83be 3f1a 823e
00000140: b020 8fbd 2f2e 3a3e a6e2 ef3d 7745 d43d
00000150: ae08 e53d eec2 5fbe acef e8bc 676b c63e
00000160: 328b 82bd 204c e53d 69fc 853e 0854 8c3e
00000170: 91c9 bd3e a704 df3e c7f9 d53e 965d e23e
00000180: 35ff 453e dd93 803e 55e6 153e 82de a33e
00000190: 52d0 5ebe 738f fe3c cc5c 203d 1e74 24bd
000001a0: 7fde 973d fe17 863d 85b2 58bb ed00 8a3d
000001b0: c72f 023e 38f6 973d e2bf 69be c07d c33e
000001c0: 7af9 4fbe 883f a63e 346a 0fbe 1871 283f
000001d0: 7933 123e d073 0bbe c07c ebbe 1d80 f63e
000001e0: 5a55 75bd 77c0 b63e 78c7 21bf e4fe 9e3e
000001f0: 5477 413e a8f9 7dbd 7887 643f 78be 93bc
00000200: c0ce d33d 4c76 af3e 0c69 67be 38bd f8bd
00000210: 4167 ed3d bf96 373d 669e c5be 57d6 b0bb
00000220: 0009 bcbd 36bc 7ebe c877 d9be 3269 573e
00000230: 4ebb cdbe a7c7 9cbd b85e 05bc 4f7d 003f
00000240: a71f 893d 4896 49be bc6c 5c3e 1931 3d3e
00000250: 232e 47be 2159 d53d 4a41 00bf 8836 cbbd
00000260: 3aa8 363d d945 70be b1c9 243f db1a 98bd
00000270: ec4d 093d b9f3 aabd 30ad eb3e 3daa a2be
00000280: 275f e5bd 2a06 47be b481 0abe ac3f 793e
00000290: 285f 093f 0ec9 c0bd 4cc7 583f 6d8f c73e
000002a0: 4174 073f 407d e33e 0b71 883e cd64 c73e
000002b0: 1d24 e93e 4f98 f53e 8dd4 e33e 4866 783e
000002c0: 5d91 c53e 8ef1 063f 9895 5a3f b2b8 ca3e
000002d0: 0711 c4be d3b6 c4be 6343 493c 61f5 04be
000002e0: 7408 0abf 1085 e23e 2c77 e8be 73fb edbb
000002f0: 09aa 9b3d 98f7 163f 2608 643d a86a 8cbe
00000300: df93 513e 194e d93d 0a32 9ebe 2277 eabd
00000310: 3e3b 68bd 6064 a9bd f92f 2abd 5ae1 a03e
00000320: 4e88 59bf 89e3 20bd c40e e13e 3c7b cfbe
00000330: 8b1b 7a3e 1bfb 85be d37a febe 5902 bc3e
00000340: 177a dfbd a953 25be f7f5 193e 623a a8bb
00000350: 5a6a 06be 92c8 b53d 43a7 4a3d 3133 2b3e
00000360: 9371 11bf 9e6a c7b9 5534 ba3b f7d6 f2bd
00000370: 8fb2 823c c319 81bd 43c1 a6bd 384f d13c
00000380: 9914 1fbe bf7f a1bd 28d1 07bd 363d aa3e
00000390: 98ea 6fbe ae62 093e d29e 0b3f 308e db3d
000003a0: 170c c23e 8f2d 4e3e 8738 1d3d c7c1 433d
000003b0: f34f c1be bdc4 b3be 685b 86be 7b4d 95bf
000003c0: 326a a93e d66b 8c3d a982 f6bd 5a6e 2dbe
000003d0: ba44 d0be 6ee6 d6be c665 9d3f d919 903f
000003e0: b25d 1a3f 60b2 893e 0d7e 033f 5d26 043e
000003f0: 4876 b4bd 58e2 ea3d 707a 82be 02a5 0cbe

Layer0.xg.bias f4 [128]
0.0019177246 -0.030374246 0.05161076 -0.0026659174 -0.057945564 -0.0015969244 -0.073891394 -0.10098289
0.019308453 0.05264117 -0.034845226 -0.0388398 -0.14859119 0.10911236 -0.036015503 -0.042515513
0.012162273 -0.045508496 -0.10842425 0.02906544 -0.040361278 0.119462304 0.015291997 -0.05400663
-0.078691676 0.06878202 -0.01953816 -0.010536349 -0.07036356 -0.034387022 -0.0186597 0.039154194
0.047387943 0.032186914 0.049306266 -0.071131386 -0.07969077 -0.013730431 -0.06714302 -0.12151348
-0.10109962 -0.05084779 0.045864753 0.015357754 0.023031592 -0.05800745 0.035729684 -0.106180586
-0.041746046 0.038033184 -0.041971285 -0.051519923 -0.10561621 0.11964427 -0.057976212 0.0095462715
-0.041347824 -0.0011663536 -0.052335706 -0.075493865 -0.0082364045 -0.00048413186 0.0027781636 -0.043587815
0.0877801 -0.024163658 0.049558997 -0.045386244 0.07025143 0.056068286 -0.02737829 0.01981001
0.041257534 -0.04564683 0.14457524 -0.007681255 0.032167405 -0.010299981 -0.043178298 -0.05537825
-0.03992719 0.0037931383 0.03859144 -0.03953946 0.011661522 0.082577676 0.016042117 -0.07549752
-0.040873874 0.04227001 -0.025428405 -0.032671563 -0.063390695 -0.06776918 -0.057597585 0.09482681
-0.063444056 -0.003224411 0.07772749 0.07789929 0.030289205 -0.08637185 -0.025085747 0.07816285
0.04729733 0.03873021 -0.085654676 0.15798156 0.010536974 0.019237364 -0.013432579 -0.05195482
-0.029333679 0.010958109 -0.06772136 -0.10433118 -0.008764951 -0.09393643 0.06745453 0.009373392
-0.055233836 -0.0019619581 0.0122588165 0.08062621 -0.066043116 0.10110899 -0.0064379172 0.06824778
00000000: 295c fb3a 69d3 f8bc ce65 533d acb6 2ebb
00000010: 5458 6dbd e44f d1ba 5f54 97bd 1ed0 cebd
00000020: c32c 9e3c 449e 573d deb9 0ebd 7b16 1fbd
00000030: 4a28 18be 4d76 df3d fe84 13bd bf24 2ebd
00000040: 4544 473c 1e67 3abd 880d debd a51a ee3c
00000050: de51 25bd a7a8 f43d 498b 7a3c 0e36 5dbd
00000060: 1a29 a1bd 96dd 8c3d 7e0e a0bc a7a0 2cbc
00000070: c51a 90bd 68d9 0cbd 3adc 98bc 2660 203d
00000080: dc19 423d 6dd6 033d 5ef5 493d 55ad 91bd
00000090: ea34 a3bd 9af5 60bc 4882 89bd 0fdc f8bd
000000a0: 510d cfbd c645 50bd aedc 3b3d 179f 7b3c
000000b0: c0ac bc3c 3899 6dbd 4a59 123d 3575 d9bd
000000c0: e7fd 2abd afc8 1b3d 15ea 2bbd 8e06 53bd
000000d0: 504d d8bd 0e08 f53d 7778 6dbd f767 1c3c
000000e0: 565c 29bd 55e0 98ba f75d 56bd 879c 9abd
000000f0: fcf1 06bc 14d3 fdb9 da11 363b 2389 32bd
00000100: 0ec6 b33d ddf2 c5bc 60fe 4a3d ede6 39bd
00000110: fbdf 8f3d dca7 653d 7048 e0bc 9a48 a23c
00000120: a9fd 283d 2cf8 3abd 880b 143e 0ab3 fbbb
00000130: f8c1 033d 40c1 28bc badb 30bd 4ed4 62bd
00000140: b18a 23bd 4d96 783b 0f12 1e3d 21f4 21bd
00000150: f80f 3f3c 7c1e a93d c26a 833c 729e 9abd
00000160: 5d6b 27bd 5123 2d3d 3b4f d0bc 9ed2 05bd
00000170: fbd2 81bd 91ca 8abd 72eb 6bbd 8f34 c23d
00000180: f5ee 81bd a450 53bb 972f 9f3d aa89 9f3d
00000190: 1121 f83c b9e3 b0bd a080 cdbc d813 a03d
000001a0: d8ba 413d 92a3 1e3d b86b afbd ebc5 213e
000001b0: 46a3 2c3c ad97 9d3c 5214 5cbc 94ce 54bd
000001c0: 2f4d f0bc a489 333c 7fb1 8abd 96ab d5bd
000001d0: de9a 0fbc be61 c0bd 9a25 8a3d db92 193c
000001e0: e03c 62bd 3294 00bb 34d9 483c 5b1f a53d
000001f0: 9d41 87bd 3b12 cf3d 2af5 d2bb 7ec5 8b3d

Layer0.xr.weight f4 [128, 78]
0.572303 -0.0051866868 -0.6017389 0.50892156 0.0051097968 -2.2607045 0.06935884 -0.2526289
0.14550613 0.07397238 -1.0213042 -0.08903271 0.018424938 -0.07016769 0.08619163 0.08436583
0.013571801 0.026518708 -0.37893832 0.038906142 -0.3015709 -1.7465943 -0.25401673 -0.4746015
0.42105228 0.049236313 0.62758976 0.7938783 0.76062834 -0.09969425 -0.15202071 -0.35679254
0.0015400857 0.499019 -0.5874757 -1.4557734 0.9860774 0.2546553 0.4229662 1.0455159
0.25976908 -0.3831127 -0.06778442 -0.114445 -0.01597209 -0.60861886 -0.28992504 0.21163249
0.19535443 -0.13120842 -0.5512756 0.17519334 -1.1659157 0.9095707 -1.1860799 0.45218092
-0.5329781 -1.7943897 2.1971362 1.9396964 1.4049352 -0.04649175 1.0417649 -0.68607557
0.22527866 0.52064306 -0.7849098 -0.2956446 -0.5127632 -0.33814824 0.28531092 -1.0864365
-0.7862293 -0.8642173 -3.4003966 -0.1635969 -0.69534856 0.26660436 -1.0736458 -0.93829215
-0.7974308 0.73354083 0.70745426 1.3511437 0.6762528 -0.1905546 -1.2420154 -0.11769946
-1.2645506 -0.009202648 -0.61495733 0.16182359 0.23695023 0.3793067 0.2826703 0.3032118
0.12280549 -0.05141036 0.10564313 -1.0505841 -0.42732573 -0.15662779 -1.046168 -0.20053408
0.5003133 -0.453004 1.1356294 1.027285 -0.5825498 -1.2684753 -0.12827478 -0.6312268
-0.36706847 -1.4039131 -0.15931219 -2.3555946 1.4449488 0.18839106 -0.4976006 0.31361386
0.8873699 0.9967847 -0.99206626 0.53304094 0.2315805 0.56862134 -0.13502674 0.2347931
0.7671035 -0.34732682 0.40392926 -1.0922545 -0.5707242 -0.56856924 0.5390599 -2.1578345
-1.078542 -0.16363741 0.23868023 0.8816339 0.72683126 1.593304 0.3010922 -1.2189122
-0.07092854 0.30251387 0.24011846 1.8413633 1.4507855 0.2550575 -0.5824236 1.8243003
-0.3010279 -2.6192477 0.55846876 -1.6513127 -0.36814672 -0.100738265 -0.4277367 0.20014553
-0.36612844 0.39577237 -0.054113343 -0.06073671 -0.058006592 0.23064885 -0.5171033 0.36913654
-0.13739665 -0.40417907 -0.39067957 -0.47590706 -0.34099704 0.033678688 0.00027545347 0.38796595
0.37621957 0.19390196 -0.17101727 -0.33417782 0.10281849 0.04792845 1.2785206 0.23903428
-0.36182877 0.65283376 0.29035565 -0.7306926 0.3195461 -1.0049826 -0.11524165 -0.4521979
0.10661744 0.26670793 -0.3451391 0.029657755 0.6245807 0.74900544 -1.4917564 -1.4935706
0.46328053 0.29702017 -0.8063469 -0.20203704 -0.14615816 -0.19650541 0.2751181 -0.5530498
0.2325509 -1.0042354 -0.561444 -0.9153083 0.8960336 1.0187553 0.5006454 0.3298214
-0.47420332 0.16455106 -0.21713635 -0.5649532 -0.69910127 1.1025792 -0.46631822 -0.2698578
-0.7534153 -1.6483424 0.87707794 -0.9142589 -0.2792957 -0.24155384 0.94696784 0.36877516
-1.143154 0.3717547 -0.01675404 -1.4770695 -0.5585863 -0.54094 -0.076814644 -1.8960737
0.081173055 0.12077205 -0.7510457 -0.42529684 -0.91064656 0.3903396 -0.5130888 -0.21886335
-0.43811855 -0.04793825 0.84114075 0.58136487 0.17057443 0.11257379 0.37409768 0.18614668
00000000: 7382 123f 15f5 a9bb 900b 1abf af48 023f
00000010: 1570 a73b 62af 10c0 020c 8e3d 9358 81be
00000020: 8fff 143e d57e 973d 19ba 82bf c856 b6bd
00000030: e5ef 963c 14b4 8fbd 3d85 b03d fec7 ac3d
00000040: 425c 5e3c c33d d93c 3404 c2be 0c5c 1f3d
00000050: 8067 9abe 6790 dfbf 7b0e 82be f8fe f2be
00000060: 2a94 d73e 04ac 493d b9a9 203f 9c3b 4b3f
00000070: 8ab8 423f 802c ccbd 51ab 1bbe 83ad b6be
00000080: b3dc c93a 6b7f ff3e cf64 16bf c856 babf
00000090: 926f 7c3f 2e62 823e 078f d83e 77d3 853f
000000a0: 7400 853e 5927 c4be 8fd2 8abd 2462 eabd
000000b0: e7d7 82bc 72ce 1bbf 0e71 94be 30b6 583e
000000c0: fe0a 483e 805b 06be 6620 0dbf e265 333e
000000d0: ba3c 95bf a0d9 683f 77d1 97bf 4284 e73e
000000e0: 4171 08bf 90ae e5bf e19d 0c40 f947 f83f
000000f0: ebd4 b33f 226e 3ebd 8d58 853f a6a2 2fbf
00000100: 73af 663e dd48 053f d9ef 48bf bb5e 97be
00000110: 7344 03bf c421 adbe 4614 923e 5a10 8bbf
00000120: 5346 49bf 583d 5dbf 19a0 59c0 f285 27be
00000130: 5d02 32bf 5e80 883e 3a6d 89bf ea33 70bf
00000140: 6d24 4cbf 55c9 3b3f b91b 353f 47f2 ac3f
00000150: e71e 2d3f bf20 43be 5cfa 9ebf 6a0c f1bd
00000160: cbdc a1bf b4c6 16bc d86d 1dbf 15b5 253e
00000170: 15a3 723e 7d34 c23e 29ba 903e 943e 9b3e
00000180: 7281 fb3d ab93 52bd 6d5b d83d 8a79 86bf
00000190: 70ca dabe 0963 20be d5e8 85bf ce58 4dbe
000001a0: 8814 003f 24f0 e7be 4e5c 913f 137e 833f
000001b0: fc21 15bf 665d a2bf 775a 03be 1498 21bf
000001c0: 66f0 bbbe 6db3 b3bf bc22 23be 10c2 16c0
000001d0: 15f4 b83f 96e9 403e 81c5 febe ff91 a03e
000001e0: ac2a 633f 482d 7f3f 0ef8 7dbf 5f75 083f
000001f0: 7023 6d3e 2b91 113f 7344 0abe 9a6d 703e
00000200: e560 443f d2d4 b1be d1cf ce3e ffce 8bbf
00000210: fb1a 12bf c18d 11bf d4ff 093f f619 0ac0
00000220: aa0d 8abf 9190 27be 9768 743e c2b2 613f
00000230: 9d11 3a3f 63f1 cb3f c228 9a3e 5105 9cbf
00000240: fb42 91bd 19e3 9a3e 9de1 753e cbb1 eb3f
00000250: 57b3 b93f e696 823e b719 15bf ac82 e93f
00000260: 5420 9abe c1a1 27c0 cff7 0e3f 375e d3bf
00000270: ba7d bcbe dd4f cebd 4e00 dbbe f3f2 4c3e
00000280: 3075 bbbe ada2 ca3e f4a5 5dbd 0ec7 78bd
00000290: 5298 6dbd 362f 6c3e e260 04bf 77ff bc3e
000002a0: b5b1 0cbe 8ff0 cebe 2707 c8be 17aa f3be
000002b0: 2a97 aebe aaf2 093d bd6a 9039 79a3 c63e
000002c0: da9f c03e 3c8e 463e 271f 2fbe 5b19 abbe
000002d0: 8092 d23d 9f50 443d 90a6 a33f 67c5 743e
000002e0: 9f41 b9be 1d20 273f 7fa9 943e ac0e 3bbf
000002f0: 8c9b a33e 45a3 80bf d003 ecbd 7c86 e7be
00000300: 3f5a da3d f18d 883e 12b6 b0be d2f4 f23c
00000310: 85e4 1f3f d2be 3f3f e0f1 bebf 522d bfbf
00000320: 1b33 ed3e 0713 983e c06c 4ebf cce2 4ebe
00000330: 7caa 15be b738 49be 48dc 8c3e ac94 0dbf
00000340: d321 6e3e c98a 80bf cbba 0fbf a551 6abf
00000350: 7562 653f 9366 823f 4c2a 003f 5ade a83e
00000360: c7ca f2be 1380 283e fe58 5ebe c6a0 10bf
00000370: 4df8 32bf 5121 8d3f 43c1 eebe cd2a 8abe
00000380: d3df 40bf e2fc d2bf 2e88 603f df0c 6abf
00000390: d9ff 8ebe e459 77be 7c6c 723f 19d0 bc3e
000003a0: df52 92bf a256 be3e c53f 89bc 9d10 bdbf
000003b0: 83ff 0ebf 0b7b 0abf ff50 9dbd 8bb2 f2bf
000003c0: 0f3e a63d 5657 f73d 8844 40bf 82c0 d9be
000003d0: 2220 69bf 98da c73e ca59 03bf b71d 60be
000003e0: 1351 e0be e65a 44bd 0055 573f 54d4 143f
000003f0: 10ab 2e3e 168d e63d bb89 bf3e 3c9d 3e3e

Layer0.xr.bias f4 [128]
-0.09913504 -0.09452777 -0.19030924 -0.12828724 -0.32142758 -0.20118648 -0.11899208 0.085311994
-0.21707365 -0.37641922 0.202215 -0.103115775 -0.17882864 -0.3132208 -0.37832788 -0.17407787
-0.22772816 0.1009618 -0.028441029 -0.25909337 -0.12733598 -0.16802163 -0.07042284 -0.05560738
-0.251801 -0.2998551 -0.13542604 -0.13690744 -0.21564315 -0.16968952 -0.13741006 -0.13007404
-0.056835297 -0.081368566 -0.33340788 -0.44110537 -0.27908295 -0.006465077 -0.20543621 -0.12268169
-0.12994745 -0.102292284 -0.20193054 -0.20157526 -0.19739604 -0.21858694 -0.1398249 -0.09325355
-0.09039397 -0.1792474 -0.051108528 -0.09644408 -0.07230769 -0.2676351 -0.13485007 0.121746466
-0.29299122 -0.017671857 -0.15789047 -0.19977431 -0.25525174 0.05331771 -0.1101978 -0.19711857
-0.21082738 -0.22351962 -0.19632679 -0.14446245 -0.33654866 -0.29107422 -0.013838332 -0.14022489
-0.3982845 -0.20282993 -0.17573951 -0.30693242 -0.104953855 -0.043480314 -0.16397566 -0.036264427
0.19836871 -0.07762849 -0.11006934 -0.012303924 -0.0036494923 0.06364456 -0.35840294 -0.3847315
-0.028007219 -0.097324096 -0.24072154 -0.16780065 -0.15658505 -0.21457668 -0.26917395 -0.010794349
-0.07408906 -0.28205922 -0.62767696 -0.019865159 -0.14095096 -0.08045336 -0.2749364 -0.13964196
0.06785343 -0.2884398 0.027867917 -0.19193034 -0.25760868 -0.17748103 -0.2514163 -0.36971042
-0.37005264 0.07275242 0.006712859 -0.36676878 -0.21469317 0.058815725 -0.13961078 -0.11764506
-0.037380144 -0.085810736 -0.19378208 -0.39964417 -0.13831525 -0.06263372 -0.040820524 -0.20759636
00000000: 5007 cbbd c797 c1bd 6de0 42be bb5d 03be
00000010: 2892 a4be d403 4ebe 1fb2 f3bd 0eb8 ae3d
00000020: 8e48 5ebe 05ba c0be 7311 4f3e 5d2e d3bd
00000030: db1e 37be 7a5e a0be 31b4 c1be 7841 32be
00000040: 9231 69be 0fc5 ce3d 29fd e8bc e3a7 84be
00000050: 5d64 02be dd0d 2cbe da39 90bd 90c4 63bd
00000060: 10ec 80be 9c86 99be 20ad 0abe 7731 0cbe
00000070: 8fd1 5cbe 17c3 2dbe 39b5 0cbe 2132 05be
00000080: 21cc 68bd 90a4 a6bd 70b4 aabe 90d8 e1be
00000090: f6e3 8ebe ffd8 d3bb df5d 52be 8a40 fbbd
000000a0: f210 05be 9e7e d1bd e1c6 4ebe bf69 4ebe
000000b0: 3022 4abe 41d5 5fbe 422e 0fbe b8fb bebd
000000c0: 7920 b9bd a18c 37be 2d57 51bd 7984 c5bd
000000d0: 0e16 94bd 7807 89be 2316 0abe 3656 f93d
000000e0: f202 96be 92c4 90bc 0aae 21be a391 4cbe
000000f0: 5bb0 82be ac63 5a3d 62af e1bd 73d9 49be
00000100: 22e3 57be 54e2 64be e409 49be f7ed 13be
00000110: 1b50 acbe ae07 95be 2cba 62bc 1d97 0fbe
00000120: f2eb cbbe a6b2 4fbe 0ff5 33be 3f26 9dbe
00000130: 0cf2 d6bd 6a18 32bd 3ce9 27be 028a 14bd
00000140: 2b21 4b3e b0fb 9ebd 096c e1bd 6696 49bc
00000150: 522c 6fbb 1458 823d 9780 b7be 87fb c4be
00000160: 656f e5bc db51 c7bd b57f 76be efd3 2bbe
00000170: d557 20be fdb9 5bbe 2bd1 89be c8da 30bc
00000180: 01bc 97bd 116a 90be 70af 20bf 42bc a2bc
00000190: 7355 10be bbc4 a4bd 77c4 8cbe 4dfe 0ebe
000001a0: bdf6 8a3d 62ae 93be 424b e43c 6389 44be
000001b0: 49e5 83be 96bd 35be a3b9 80be af4a bdbe
000001c0: 8a77 bdbe 39ff 943d 8bf7 db3b 1ec9 bbbe
000001d0: 87d8 5bbe c2e8 703d 21f6 0ebe e5ef f0bd
000001e0: ec1b 19bd 8abd afbd cf6e 46be 299e ccbe
000001f0: 83a2 0dbe 1c46 80bd 6c33 27bd 2494 54be

Layer0.xz.weight f4 [128, 78]
-1.213645 0.55071 -1.0997826 -0.52342165 -0.3283683 -0.54046535 -0.53205156 0.12450396
-0.7846033 1.078314 -1.36313 0.05400686 -0.64113086 -0.41898894 -0.5431763 -0.52646893
-0.7015006 -0.6622007 -0.37080032 -0.2801446 -0.35871652 -1.2556175 -0.77076924 -0.81628525
0.22084254 0.9746447 0.62858635 -0.079735085 -1.5137153 0.110302545 -0.2583052 0.5345822
-2.045106 -0.35391036 -1.1567091 -1.1993434 -0.09433772 -0.5688814 -1.6176407 -0.9341232
0.46796432 -1.1369954 -1.5117631 -0.0035664826 0.16280468 -0.8334959 -0.95768577 0.26092532
-1.4281288 0.6782227 -0.781978 -0.14800939 -0.12481986 -0.4109751 -2.1767306 -0.66325647
0.11587164 0.18725544 0.5453942 0.46900994 -0.7326102 0.44033796 1.0775089 -0.6432264
-2.547115 0.2491403 -1.398162 0.05395451 0.8010297 -0.5774263 -0.6118055 -0.6703905
-0.13173018 -0.96370226 0.019936772 -0.7445897 0.7394151 -0.41692767 -0.36825296 -0.8089035
-0.20736347 0.832484 -0.051247153 -1.5333425 0.17532097 0.6762493 -0.4953565 -0.25870138
-0.71381235 -0.025508573 0.12054773 -0.089510046 -0.16459034 0.2124908 -0.016430056 0.096730806
0.4317281 0.342921 0.10516204 -0.43214872 -0.37545034 0.26275918 -0.57443243 -0.40029642
-0.5894215 0.6411544 -1.5184941 -1.9659139 -1.8730923 -1.0954698 0.05197918 0.71388936
-0.9392802 0.059047073 0.1927722 1.2359122 -0.2836612 -0.3269493 0.48315617 0.34382722
0.79468733 -0.8118146 -0.6484853 1.5341872 -0.7755935 -0.18762454 0.069916844 -0.14542626
-0.4291976 -1.299645 -0.26854923 -0.37739024 -0.2984822 -0.32300594 -0.39525306 0.18583785
-0.87302864 0.0030388134 -0.5556324 -0.42802903 0.3351764 1.4319319 -0.30167153 0.052208196
0.45824832 -2.6451037 -0.8788781 0.927358 -0.03505449 1.5104167 -0.1734026 -0.6925736
0.10725779 0.5203815 0.8799585 0.78024703 -0.33308652 0.08301413 -0.2318729 -0.20481092
0.22018391 -0.7824035 0.3016173 -0.91254723 -0.7562556 0.79089344 -0.9138002 0.36174515
-0.024293859 -0.672873 -0.08666204 -0.26056054 0.037665006 0.5942153 -0.495246 -0.36014283
0.29030535 -0.48487294 -0.72530067 -0.116485395 0.2785309 -1.3084909 -1.4492927 -0.1879435
-0.30432382 0.0193087 0.29578796 0.20108117 0.031325623 -1.2097696 0.2871255 -0.5223214
0.7384538 0.10116898 -1.3549349 -0.89312667 -0.7951234 0.17907056 0.003513978 0.25574726
-0.36608988 -1.0978695 0.58503056 -0.40349898 -0.14936514 -0.9185127 -0.25435424 -0.3552119
-0.68801457 -0.8020197 -0.0489519 -0.8076551 -1.1917096 0.5918357 -0.2891632 0.9059572
-0.3342544 0.26990974 -0.021861646 1.0422107 -0.08589041 0.3623149 0.045933682 -0.39690366
-0.21532625 0.62411803 0.2281624 0.22941697 0.26007685 0.17569245 -0.23949894 0.73660237
-0.5567773 -0.72578174 -0.3420107 -0.8720099 -0.111013524 -0.21437386 -0.3040153 -1.4264154
0.5069816 -0.48465878 -0.5601798 0.15878835 -0.93688476 -0.5684365 -0.19319524 0.16733922
0.41954207 -0.06975623 -0.17782131 -0.5777149 -0.14313588 -0.15213235 -0.5302837 0.77405167
00000000: b858 9bbf 55fb 0c3f adc5 8cbf f6fe 05bf
00000010: e41f a8be f05b 0abf 8834 08bf effb fe3d
00000020: c3db 48bf 3106 8a3f 0b7b aebf 4c36 5d3d
00000030: 2721 24bf b885 d6be 9a0d 0bbf abc6 06bf
00000040: 8b95 33bf fc85 29bf 8ad9 bdbe 1d6f 8fbe
00000050: b1a9 b7be 13b8 a0bf 2251 45bf 12f8 50bf
00000060: 8c24 623e 5182 793f 09eb 203f 264c a3bd
00000070: 6cc1 c1bf 4de6 e13d 9440 84be 61da 083f
00000080: 04e3 02c0 bd33 b5be 0b0f 94bf 1684 99bf
00000090: 2234 c1bd 36a2 11bf da0e cfbf b322 6fbf
000000a0: 0599 ef3e 1189 91bf 7481 c1bf a6bb 69bb
000000b0: 45b6 263e fd5f 55bf e52a 75bf 0198 853e
000000c0: edcc b6bf 01a0 2d3f b62f 48bf c68f 17be
000000d0: 8ea1 ffbd 546b d2be 8e4f 0bc0 2dcb 29bf
000000e0: 1c4e ed3d e4bf 3f3e f49e 0b3f 1222 f03e
000000f0: 588c 3bbf fa73 e13e d0eb 893f 7caa 24bf
00000100: ef03 23c0 a31e 7f3e f9f6 b2bf 67ff 5c3d
00000110: 4810 4d3f 36d2 13bf 499f 1cbf b69e 2bbf
00000120: 47e4 06be 31b5 76bf 7152 a33c 6e9d 3ebf
00000130: 4f4a 3d3f 8b77 d5be a78b bcbe 4d14 4fbf
00000140: 1757 54be ac1d 553f 89e8 51bd 9144 c4bf
00000150: 5787 333e ad1e 2d3f 5e9f fdbe 8274 84be
00000160: 68bc 36bf 5bf7 d0bc bae1 f63d 0b51 b7bd
00000170: 5f8a 28be 3097 593e 5398 86bc cd1a c63d
00000180: 770b dd3e 5793 af3e 325f d73d 9942 ddbe
00000190: 073b c0be 5f88 863e 010e 13bf a7f3 ccbe
000001a0: 54e4 16bf b222 243f 045e c2bf 11a3 fbbf
000001b0: 7dc1 efbf 5b38 8cbf 1fe8 543d 74c1 363f
000001c0: ab74 70bf 58db 713d 1366 453e 5f32 9e3f
000001d0: 0a3c 91be e665 a7be 3f60 f73e 1f0a b03e
000001e0: a170 4b3f 15d3 4fbf 2203 26bf 3f60 c43f
000001f0: 4c8d 46bf a620 40be 9030 8f3d 9fea 14be
00000200: cabf dbbe c45a a6bf 497f 89be 4b39 c1be
00000210: a9d2 98be 0961 a5be 9c5e cabe 474c 3e3e
00000220: ce7e 5fbf d426 473b ed3d 0ebf 9f26 dbbe
00000230: 3e9c ab3e 8b49 b73f b174 9abe 43d8 553d
00000240: 869f ea3e 6149 29c0 28fe 60bf 5567 6d3f
00000250: 4c95 0fbd 5655 c13f 7490 31be 814c 31bf
00000260: f9a9 db3d b937 053f f644 613f 45be 473f
00000270: 518a aabe 5003 aa3d 1770 6dbe f4b9 51be
00000280: e477 613e 994b 48bf 956d 9a3e b29c 69bf
00000290: f899 41bf fe77 4a3f cfee 69bf a936 b93e
000002a0: ea03 c7bc 6841 2cbf de7b b1bd 3168 85be
000002b0: 9f46 1a3d 7e1e 183f e290 fdbe a464 b8be
000002c0: e7a2 943e 4441 f8be 4ead 39bf e58f eebd
000002d0: 9a9b 8e3e a17c a7bf 6c82 b9bf 4374 40be
000002e0: 55d0 9bbe 472d 9e3c 8571 973e 39e8 4d3e
000002f0: 4c4f 003d bbd9 9abf 1d02 933e dbb6 05bf
00000300: 4f0b 3d3f af31 cf3d 826e adbf f3a3 64bf
00000310: 358d 4bbf 465e 373e c54a 663b 4ef1 823e
00000320: 2270 bbbe fd86 8cbf 90c4 153f 6b97 cebe
00000330: 2df3 18be a623 6bbf b83a 82be 56de b5be
00000340: b921 30bf 2a51 4dbf ca81 48bd 7cc2 4ebf
00000350: f189 98bf 8b82 173f 330d 94be d0ec 673f
00000360: 6523 abbe 9c31 8a3e 3217 b3bc 2967 853f
00000370: 50e7 afbd 5781 b93e f524 3c3d f536 cbbe
00000380: 7c7e 5cbe 33c6 1f3f 67a3 693e 48ec 6a3e
00000390: cb28 853e b9e8 333e 363f 75be f991 3c3f
000003a0: f588 0ebf d5cc 39bf 071c afbe 0a3c 5fbf
000003b0: 0f5b e3bd d284 5bbe e5a7 9bbe c894 b6bf
000003c0: 8cc9 013f 3225 f8be f267 0fbf 6a99 223e
000003d0: aed7 6fbf 0e85 11bf f9d4 45be f95a 2b3e
000003e0: 38ce d63e 5bdc 8ebd ca16 36be 20e5 13bf
000003f0: 3692 12be 95c8 1bbe acc0 07bf 4028 463f

Layer0.xz.bias f4 [128]
-1.2103244 -0.38684675 -0.5476437 -0.72239816 -0.9133779 -0.71800673 -0.61237645 -0.72486186
-0.60435706 -0.5258767 -0.81820613 -0.6198748 -0.8610146 -0.364983 -0.901234 -0.78471833
-0.5126092 -0.7204198 -0.6738754 -0.6334139 -0.85984147 -1.0198976 -1.0842327 -0.7912928
-0.8490649 -0.95566726 -0.42087635 -0.410277 -0.6418074 -0.63698447 -0.54160297 -0.7501322
-0.15995765 -0.31794158 -0.7349818 -0.8026556 -0.3130561 -0.48285404 -0.5779246 -0.46679986
-0.54287535 -1.0348024 -0.8731471 -1.0231028 -0.8073104 -0.88167584 -0.54031765 -0.9136792
-1.0630682 -1.1452919 -0.61749285 -0.34846568 -0.6491508 -0.8633615 -0.8031539 -0.4296481
-0.3528513 -0.23547034 -0.88038474 -0.7723073 -0.92976743 -0.69164395 -1.0432417 -0.7402821
-0.7049589 -0.66049594 -0.55419624 -0.5596547 -0.5993486 -0.62221056 -0.48699185 -0.7633791
-0.5394616 -0.61441594 -0.43857858 -0.4886991 -0.6827355 -0.3802239 -0.65309054 -0.511796
-0.95438296 -0.6943072 -0.59723735 -0.53597647 -0.94803214 -0.9843477 -0.23165107 -0.50532037
-0.4096874 -1.0577456 -0.71103656 -0.52004945 -0.8014566 -0.6644597 -0.728635 -0.4991477
-0.431033 -0.78019905 -0.20729356 -0.6211315 -0.42145276 -0.7521239 -0.9881935 -0.7567397
-0.7107683 -0.491413 -0.7365705 -0.5632437 0.41642058 -0.9114353 -0.8606713 -0.3831348
-0.63488895 -0.8925187 -0.6849114 -0.97160214 -0.82867867 -0.96301574 -0.6101242 -0.6612708
-1.1777105 -0.85507363 -0.14816436 -0.61953104 -1.125927 -0.8112837 -0.84832627 -0.82228094
00000000: e9eb 9abf c710 c6be 6132 0cbf 16ef 38bf
00000010: 22d3 69bf 4acf 37bf b4c4 1cbf 8c90 39bf
00000020: 25b7 1abf db9f 06bf f575 51bf 1db0 1ebf
00000030: 746b 5cbf 0ddf babe 45b7 66bf 4de3 48bf
00000040: 5b3a 03bf 6f6d 38bf 1983 2cbf 6a27 22bf
00000050: 921e 5cbf 018c 82bf 23c8 8abf 2a92 4abf
00000060: 515c 59bf 9ca6 74bf 1b7d d7be d40f d2be
00000070: 7d4d 24bf 6a11 23bf 7ea6 0abf aa08 40bf
00000080: f0cb 23be 3dc9 a2be c427 3cbf d67a 4dbf
00000090: e448 a0be a538 f7be def2 13bf 6400 efbe
000000a0: e1f9 0abf 6874 84bf 9186 5fbf 08f5 82bf
000000b0: e5ab 4ebf 82b5 61bf 4252 0abf e1e6 69bf
000000c0: 9e12 88bf ed98 92bf 0314 1ebf 186a b2be
000000d0: bf2e 26bf 4205 5dbf 7e9b 4dbf d6fa dbbe
000000e0: eda8 b4be 231f 71be e560 61bf eeb5 45bf
000000f0: 3d05 6ebf 940f 31bf f288 85bf 2183 3dbf
00000100: 3078 34bf 4316 29bf cedf 0dbf 8845 0fbf
00000110: e96e 19bf 3149 1fbf ff56 f9be d06c 43bf
00000120: 281a 0abf 5d4a 1dbf 5f8d e0be c536 fabe
00000130: c1c7 2ebf b5ac c2be f130 27bf 1005 03bf
00000140: 7152 74bf 1ebe 31bf 8ce4 18bf c135 09bf
00000150: 3cb2 72bf 36fe 7bbf f035 6dbe ad5c 01bf
00000160: 8cc2 d1be 3564 87bf 7e06 36bf f621 05bf
00000170: 422c 4dbf 081a 2abf d387 3abf 4a90 ffbe
00000180: 5bb0 dcbe 20bb 47bf c344 54be 7902 1fbf
00000190: a8c8 d7be 318b 40bf 40fa 7cbf b1b9 41bf
000001a0: e9f4 35bf 7c9a fbbe e28f 3cbf bd30 10bf
000001b0: 1435 d53e d353 69bf f454 5cbf 3f2a c4be
000001c0: 1588 22bf 1b7c 64bf 5a56 2fbf ebba 78bf
000001d0: 4924 54bf 3388 76bf 1931 1cbf 0b49 29bf
000001e0: 38bf 96bf 1be6 5abf 66b8 17be 9699 1ebf
000001f0: 601e 90bf 4ab0 4fbf e92b 59bf 0181 52bf
